saajid.pt (torch, 243902 bytes, 10 tensors)

conv1.weight f4 [6, 1, 3, 3]
000000 04 44 99 3e db 2e ac 3e 71 4b bc be 44 a5 42 3e
       0.29934704 0.33629498 -0.36776307 0.19008356
000010 01 62 8f bd cb fd c7 bd f4 75 13 be 62 6e 43 3e
       -0.07001115 -0.09765204 -0.14400464 0.19085076
000020 a7 ce 7f 3e 7b 68 9f be dc a8 70 3e e4 7b 80 3e
       0.24981175 -0.311344 0.23501915 0.2509452
000030 70 56 2b 3e 4e 33 5d 3e 2c 47 48 3e ae 16 06 3e
       0.16732192 0.21601602 0.195584 0.13094589
000040 3a 26 bf 3e c7 bd e2 bd a7 2b 88 3e 9f 80 39 3e
       0.37333852 -0.110713534 0.26595804 0.18115471
000050 79 c3 1b bf 09 f6 94 bd 83 ec a2 bf bf ee da bd
       -0.6084514 -0.0727349 -1.2728428 -0.106900685
000060 4d 9f 3a bf ad 44 bb 3d 2b 35 b1 3e f5 2e 0c be
       -0.72899324 0.09143958 0.34610876 -0.13689788
000070 dd 4d 9b be f8 8f 2b bf bc d0 88 3e ef b5 b4 be
       -0.30332842 -0.67016554 0.26721752 -0.35295054
000080 72 48 38 3e e9 b8 87 3e 1e df b4 3e cf 1e e6 3e
       0.17996386 0.26508263 0.35326475 0.4494538
000090 e7 93 71 be 84 a4 72 3e b2 0b 63 bd e8 43 91 be
       -0.23591577 0.2369557 -0.055431075 -0.2837212
0000a0 76 dc 78 3e 7d de a8 be 31 d7 02 be a9 65 9f 3e
       0.24302849 -0.32982245 -0.12777402 0.31132248
0000b0 e4 ec b9 bd 65 0a 22 3e fe 5d db 3e 3e 8b dd 3e
       -0.090783864 0.15824278 0.42845148 0.43270296
0000c0 a3 3c 80 3e c3 11 23 bd 36 34 0e be 22 ef 14 bf
       0.25046262 -0.03981186 -0.13887104 -0.5817739
0000d0 54 32 2b bf 1c 66 ca bc
       -0.6687367 -0.024706893

conv1.bias f4 [6]
000000 c3 b5 09 be bd 94 4e be 53 97 18 3e 81 9b c6 bd
       -0.13448243 -0.20173927 0.14901476 -0.09697629
000010 a3 52 2f be c1 0c 80 3c
       -0.17121367 0.015631082

conv2.weight f4 [16, 6, 3, 3]
000000 8a 37 1a 3e 6c b3 c3 bc 44 7b ab 3d b2 08 b4 3d
       0.15060249 -0.023889266 0.083731204 0.08790721
000010 51 9c 92 3d 67 41 81 bd f8 2d 79 3e b1 bd db bd
       0.07158721 -0.06311303 0.24333942 -0.1072954
000020 51 80 ed be ca 09 85 3e d9 93 99 3e 85 c9 5a 3b
       -0.4638696 0.2598403 0.2999561 0.0033384275
000030 ff 30 b6 3e f4 25 ff bd f1 a8 e0 be 59 46 d2 bd
       0.35584256 -0.12458411 -0.43878892 -0.10267324
000040 43 33 8d be 6c 21 9a bd b1 c9 52 be 34 8c 9e bd
       -0.27578172 -0.07525906 -0.20584752 -0.077415854
000050 05 d3 a3 be e0 78 2f bd e1 10 11 3d 8b 2f 87 3d
       -0.31996933 -0.042839885 0.035416488 0.06600865
000060 c5 6f 94 3e fc 87 32 3d 44 f8 ba 3c db 9d 3b bd
       0.28991523 0.043586716 0.02282346 -0.04580484
000070 96 32 8e be e9 20 42 be 73 fe 69 be 21 6c c2 be
       -0.2777297 -0.18957867 -0.22850971 -0.3797312
000080 d7 2b 9c bd 9f 47 0a be 74 3d dc be cc d3 a8 be
       -0.07625549 -0.13503884 -0.43015635 -0.32974088
000090 18 43 f1 3e 09 08 fd 3d ce 44 c6 be b2 01 35 be
       0.471215 0.12355048 -0.3872437 -0.17676428
0000a0 dd 66 9f bd d4 0a 0e be 59 3e 8c be 69 8d 96 be
       -0.077832915 -0.13871318 -0.27391317 -0.29404762
0000b0 06 3f be 3d a9 a6 2a bf 2a d8 42 3e b1 5e fd 3d
       0.092893645 -0.66660553 0.19027773 0.123715766
0000c0 9b 0d c6 be 5d 36 81 be f6 1c 2f bd c6 b1 bf 3d
       -0.38682255 -0.25236788 -0.04275223 0.093600795
0000d0 03 cf 89 3e 19 af 12 be 5d ec af be d2 62 4d be
       0.2691575 -0.14324607 -0.34360018 -0.20057228
0000e0 9d 39 a7 3d 30 02 23 bf df 45 62 bd a1 72 3a 3d
       0.08165286 -0.6367521 -0.055242416 0.045519475
0000f0 46 41 66 3b fa 09 09 3e 84 f9 bf bb 1e 99 07 bf
       0.003513412 0.13382712 -0.005858602 -0.52968013
000100 6d 3c 26 bc 9b 29 cb be 0f 8e ec be 45 f7 70 be
       -0.010146243 -0.3968018 -0.46202132 -0.23531826
000110 ed 08 89 3c d8 ac c6 3d 66 c8 8d 3e ff cb 4e 3e
       0.016727889 0.09700936 0.27691954 0.20195006
000120 fb 3c 2d be 0f 98 a3 bd 25 c5 71 be 21 9d 2c bd
       -0.16917793 -0.07987987 -0.23610361 -0.042142037
000130 c3 a4 43 bd 36 54 a8 bd 36 a8 8e 3e ee 2e 3a 3d
       -0.04776455 -0.08219187 0.2786271 0.045454912
000140 37 8a ca bd e9 95 5c bf 28 7d f8 bd eb fd 04 bf
       -0.09889644 -0.86166245 -0.12133247 -0.5194995
000150 3f 1a 5b be a3 20 b1 3d a1 3d d5 3e 2c 99 ca 3e
       -0.21396731 0.08648803 0.41648582 0.39569986
000160 d3 50 b3 3e d4 14 53 3d b1 1a c5 be 06 ef db be
       0.350226 0.051533535 -0.38496926 -0.42955798
000170 e6 64 00 be db 06 fe be df e8 b0 be 64 03 c8 bd
       -0.1253849 -0.49614605 -0.34552667 -0.09766272
000180 b0 22 1d 3d 65 89 0b be dd c5 a9 bd d5 d0 97 bd
       0.03836316 -0.1362663 -0.082896926 -0.074128784
000190 ad 30 30 3e 61 50 c3 3e 25 f7 35 bf aa 36 52 3d
       0.17206068 0.38147262 -0.7108024 0.051321663
0001a0 06 59 85 bd 79 8b 41 be a2 fc 15 be f0 a4 ad 3e
       -0.065111205 -0.18900861 -0.14647153 0.339149
0001b0 99 f7 35 bc b6 50 fa bd 8b 3f 18 be a6 39 4b bd
       -0.011106395 -0.12222426 -0.1486799 -0.049615525
0001c0 12 b1 75 3c 35 be b6 bd 7b ca 16 be 0a ad 08 be
       0.01499583 -0.08922998 -0.14725678 -0.13347259
0001d0 a1 eb 32 be 12 ca ec 3a 4f 6d 5f 3d 43 7b 1f be
       -0.17472698 0.0018065593 0.054547604 -0.15574364
0001e0 66 0b b8 bc e9 8a 77 3c 1a 5f ad 3c b4 d9 db bd
       -0.022466373 0.015108802 0.021163512 -0.10734883
0001f0 90 20 25 bc 1a e0 57 3c 7a 0c 6e 3c 6a 18 42 bd
       -0.010078564 0.013175989 0.014529342 -0.047386564
000200 33 6d bb bd 20 e7 40 bc 92 b3 92 bd 3f 78 c3 bd
       -0.091516875 -0.0117738545 -0.071631566 -0.095444195
000210 86 26 36 3d b7 16 ac 3d e0 3b ab bc a5 b3 27 bd
       0.044470333 0.0840277 -0.020902574 -0.040942807
000220 eb 7c 17 bd 48 5b f1 bc 99 24 09 3c de ee cd bc
       -0.036984365 -0.029462472 0.008370542 -0.025138315
000230 f5 77 24 be fe 7f da bd db a0 fa 3c 7d bb 7f bc
       -0.16061385 -0.10668944 0.03059428 -0.0156086655
000240 2d 03 f5 bc 93 32 f7 bd ab 36 af bd c4 58 20 be
       -0.02990874 -0.12070193 -0.08555349 -0.15658861
000250 60 18 a4 bd 10 27 1d 3d 2e cc 0a 3d 07 b9 5b 3c
       -0.08012462 0.03836733 0.033886127 0.013410813
000260 81 d9 0c be 95 d2 f7 bd f9 30 a7 bd a9 de 80 3d
       -0.13754846 -0.12100712 -0.08163638 0.06292469
000270 77 da a4 bb e1 66 a7 bd e8 fc 00 3c dd 4b f7 bd
       -0.005030926 -0.081739195 0.007872798 -0.12075017
000280 81 fa c4 bd 3d 30 e7 3d 46 43 33 3d 34 c6 ee 3d
       -0.09618092 0.112884976 0.04376533 0.11658898
000290 f9 ad a0 bd e8 32 9f 3e 57 46 44 3e f7 3b 18 3e
       -0.07845683 0.31093526 0.19167458 0.14866625
0002a0 77 05 cb be 74 e4 e0 be 61 37 b7 bd 39 d5 85 3d
       -0.39652607 -0.43924296 -0.089461096 0.065348096
0002b0 8c c7 8c 3d a4 51 6f 3e 2c b9 b8 3b 2d 3e ba 3d
       0.06873998 0.23370987 0.0056373086 0.0909389
0002c0 9c e9 c1 3d fb 11 09 bf ec 39 01 bf 3e 18 fa be
       0.094683856 -0.5354306 -0.50479007 -0.4884662
0002d0 ab d0 69 be 69 60 02 3d c1 5f ea 3d da ef de be
       -0.22833507 0.031830225 0.11444045 -0.43542367
0002e0 3c c2 31 be 58 53 88 3c ba 22 9c be ef 4c 6a 3e
       -0.17359251 0.016641304 -0.30495244 0.2288091
0002f0 5b ce ef 3e 4d 52 6a 3e b1 74 87 bd 32 00 7c bd
       0.46837124 0.22882958 -0.06614054 -0.061523624
000300 d6 a4 85 bd 4c ca 3e 3e 0a 5c ca be f6 f3 43 3e
       -0.065255806 0.18631858 -0.39523345 0.19136032
000310 1b 06 51 3e 08 22 95 bd fb 7e 33 3e 78 9e 85 3e
       0.20412485 -0.072818816 0.17528908 0.26097465
000320 6b c8 86 3e 03 a7 c0 bd ba cf 22 bd 77 d5 14 bc
       0.26324782 -0.09406855 -0.039748885 -0.009084097
000330 75 b1 eb 3d 29 a8 5d be 7b 00 0b be e1 a6 2a be
       0.115084566 -0.2164618 -0.13574402 -0.16665222
000340 90 ea 81 bd b2 89 1a bf c4 01 68 3e 4d 5f 21 bc
       -0.06343567 -0.60366356 0.22656924 -0.009849382
000350 87 68 f8 3e 05 f0 ea bc 1a a3 be 3e 41 bf 22 be
       0.48517248 -0.028678903 0.37233812 -0.1589327
000360 27 6d a6 bd 60 33 52 3e fa aa 90 3e 00 7e 00 bf
       -0.08126288 0.2052741 0.28255445 -0.5019226
000370 5d 23 fe 3c f3 3b 67 3d f7 5c 81 be 4f 3b 3b bf
       0.031022722 0.056453656 -0.2526624 -0.7313737
000380 6a c4 3b bf ae f0 0a bd 1d 29 df 3b 8e b6 86 3e
       -0.7334658 -0.033920936 0.006810321 0.26311153
000390 4f 21 00 be 2d 3d 95 bc 16 af 25 3d 98 d0 9f be
       -0.12512706 -0.018217647 0.040450178 -0.31213832
0003a0 ac 51 28 bf 90 b7 80 bf a9 54 0d be 62 73 62 be
       -0.6574962 -1.0056019 -0.13801827 -0.22114328
0003b0 8d ea 81 3d cd a7 1d be 22 85 3f bd 88 34 90 bc
       0.06343565 -0.15396042 -0.046757825 -0.017603174
0003c0 a9 ad 60 bd 3f 4b dc 3c 87 97 3d 3e d1 a1 41 3d
       -0.054853115 0.026891349 0.18514834 0.04727346
0003d0 af 02 0a 3e 5c 5a d4 3e 40 ab 1a bf d1 fe 63 be
       0.13477586 0.4147519 -0.60417557 -0.22265173
0003e0 c3 56 d7 be 80 de cf 3e 85 88 5e 3e a1 9e be bd
       -0.4205838 0.40599442 0.21731766 -0.093076
0003f0 c7 b6 28 bd dd 5d 10 be e4 56 58 3d af f7 09 3d
       -0.041189935 -0.14098306 0.05281724 0.033683475

conv2.bias f4 [16]
000000 72 c4 51 bc 5e a9 7e be fe 05 c4 bd 88 ee 18 bd
       -0.012803184 -0.24869296 -0.095714554 -0.037336856
000010 93 10 07 bd ee d8 bf bd 2e 8c f4 3d 58 49 54 be
       -0.03297479 -0.09367548 0.119408 -0.20731103
000020 a6 b5 52 be 64 d6 6a be 41 4b 51 bd ca 57 a2 be
       -0.20577106 -0.22933346 -0.05109716 -0.31707603
000030 b2 5c 91 be 7b ec 4f 3d 81 eb cb 3d c6 ea 2e 3d
       -0.28391033 0.050762635 0.09957028 0.042704366

fc1.weight f4 [120, 400]
000000 7e 31 0b be fa 5e bc 3d 7d 44 f0 3e cf d1 bf 3e
       -0.13593099 0.09197803 0.46927252 0.3746476
000010 03 7d 21 3f 61 a3 fb bd 4b 7b 86 3e 95 6e 81 be
       0.6308138 -0.122870214 0.2626594 -0.2527968
000020 41 2b 06 3d 55 8a 0d 3f f7 20 38 3d 35 c5 b8 be
       0.032756094 0.552892 0.044953313 -0.36087957
000030 89 58 b3 be b8 27 21 bd 95 6d cc be cd 94 d4 bc
       -0.35028484 -0.03934452 -0.39927354 -0.02594986
000040 94 01 05 bf 31 e4 0b be 81 10 3d be 5c 26 4c b7
       -0.51955533 -0.13661267 -0.18463327 -1.2168279e-05
000050 a6 e2 71 bd 95 a7 03 bf fa 51 8b be b5 56 a1 3e
       -0.05905404 -0.51427585 -0.2721098 0.31511465
000060 e3 97 4f 3e 25 4a e4 3d c5 21 59 3c 66 d9 20 be
       0.20272784 0.111469544 0.01325268 -0.15707931
000070 e5 2f c9 bc 7c d9 89 ba b5 91 6f be 69 20 5c be
       -0.02455897 -0.0010517086 -0.23395427 -0.21496738
000080 5c 3a 5a be b8 29 25 3d 63 32 39 3d a9 89 e9 bb
       -0.21311325 0.04032299 0.04521407 -0.007127006
000090 1a c3 d8 bc 35 b0 82 bd 2d 26 f9 bb 17 d5 2c be
       -0.02646022 -0.06381265 -0.007603428 -0.16878162
0000a0 68 ba 92 3e 15 c4 d6 3e c8 07 f5 3d 54 ea 84 bd
       0.28657842 0.41946474 0.11964375 -0.06490007
0000b0 d7 a5 9d 3d 0a 1a 08 be a3 b5 c7 3e 08 1a 9e 3e
       0.07697647 -0.13291183 0.39005765 0.30879235
0000c0 0d a5 02 3e 73 6b 42 3d 47 36 8a 3c 4e af a5 3c
       0.12758274 0.047465753 0.016871585 0.020225193
0000d0 b5 dc b3 3b 7d 03 8e bc b3 7d 3d bc 7e 74 7f bc
       0.005488957 -0.017335648 -0.011565614 -0.015591739
0000e0 55 37 5f 3d f3 e0 08 3d 5f ac 9b 3b ed 67 b0 bc
       0.054496128 0.033417653 0.004750773 -0.02153393
0000f0 60 22 94 3c e3 3c 23 bc 50 e9 59 bc 9c 49 a9 3c
       0.018082798 -0.009963247 -0.013300255 0.020664982
000100 f2 ef 08 bd 0e b3 83 bd 0c e2 cb 3b f0 a5 d3 bc
       -0.033431955 -0.06430636 0.0062220152 -0.025835961
000110 64 04 33 bc 77 a7 12 bd c0 05 09 bc 2d b1 f9 3b
       -0.01092634 -0.03580424 -0.008363187 0.007619998
000120 6b 2d 5a bd f1 12 4d bc 71 ac dc bc 74 a3 a6 3b
       -0.05326597 -0.012516723 -0.026937695 0.005085403
000130 24 a4 2c 3e 81 b5 be 3e 9a 0b ca 3c 3b a9 06 3f
       0.1685949 0.37247851 0.024663735 0.52601975
000140 7b b1 25 bc 16 7c 01 3d 16 af 84 3d 67 d9 13 bc
       -0.010113115 0.03161248 0.064787075 -0.009024001
000150 09 63 9d 3e 63 ae 04 3e 5a e3 a1 3e bd e7 ac 3e
       0.3073962 0.12957148 0.31618768 0.33770552
000160 87 c4 a9 3e e6 af 9d bc 32 07 ac bd db c1 ce 3d
       0.3315775 -0.019248914 -0.0839981 0.10095569
000170 81 75 32 3d 64 49 b1 bd 14 18 fb be c2 09 57 3b
       0.04356909 -0.08656576 -0.49041808 0.0032812213
000180 23 c7 59 3e bc 77 fb 3c 8d 4e 3b bc e4 7a cd bd
       0.21267371 0.030696742 -0.011432302 -0.10033205
000190 1e 33 3c be 65 ee 12 3d 51 0a 11 3d 63 a5 99 3e
       -0.18378875 0.035871882 0.03541023 0.30008993
0001a0 63 99 a0 3e da 9c 25 3e a7 a4 1e 3d af e6 77 be
       0.31367025 0.16173115 0.038731243 -0.24209093
0001b0 65 14 4a bd 81 31 bf 3e 3a aa 3c 3e 25 52 c9 3c
       -0.049335856 0.37342456 0.18424311 0.024575302
0001c0 1b 9b 59 be b5 9a a0 3e dd c9 ee 3e bb 6f 8b bc
       -0.21250574 0.31368032 0.46638384 -0.01702105
0001d0 cc 78 1c bd 8b 67 66 be 91 5d 7f be b3 c8 2a bf
       -0.03820114 -0.22500436 -0.24938037 -0.6671249
0001e0 0e 87 6a 3d c3 b4 24 3e 41 51 1e 3e cb 82 b4 3d
       0.057257704 0.1608458 0.15460683 0.08814009
0001f0 b8 ef 8d be bf 04 a2 be 49 d2 0b be 98 a1 04 bd
       -0.27721953 -0.31644246 -0.13654436 -0.03238067
000200 8c 3d ae 3e fc bc ce 3e ac 4a ee 3d ee 9d 10 3e
       0.34031332 0.4037856 0.11635336 0.14122745
000210 98 c9 e1 3c 13 f5 8b 3e 95 ab 27 3f 28 8c 3c 3e
       0.027561948 0.27335414 0.6549619 0.1841284
000220 85 4f 6c 3e 87 ba 54 3d 7e 82 bd bd 0f d3 f4 bc
       0.2307721 0.0519357 -0.09253405 -0.029885797
000230 59 5d 39 3e 4e 8a 95 be e5 a7 1b 3e 90 28 2e bf
       0.18102016 -0.2920708 0.15200765 -0.68030643
000240 e8 6a 45 bf f7 cc 91 3e b3 5b 75 3e 5e 2e 6a 3c
       -0.7711625 0.28476688 0.23960762 0.014293281
000250 e2 f2 8f 3e 55 86 25 3e ef 33 0c bd 6f 12 ac 3e
       0.28114992 0.16164525 -0.034229215 0.33607814
000260 2b cf 71 3c 3a 0a 98 3d 64 5e d6 3d 2f 0b 07 3d
       0.014758865 0.074238256 0.10467222 0.03296965
000270 c8 b7 02 3e a2 58 b6 3d 85 6b 93 be 60 f6 19 3e
       0.1276542 0.08903624 -0.28792968 0.15035391
000280 c0 4a b4 3d bb cb bf 3e 05 05 4b be 51 63 b9 3d
       0.0880332 0.37460122 -0.19826134 0.09052146
000290 4f d1 9c 3e a8 66 9f bd 68 48 31 3d d2 3b 6f bd
       0.3062844 -0.07783252 0.043281943 -0.05840666
0002a0 e6 5b 8a be 4c 65 5a be ab 09 d0 3c da 44 86 bd
       -0.27023238 -0.21327704 0.025395235 -0.06556101
0002b0 1f 43 5b bd f7 44 8c be 6d 2f 88 be 36 31 70 3d
       -0.05353081 -0.27396366 -0.26598683 0.05864068
0002c0 3f 47 15 3e 4f e1 1f 3e c8 67 7f be 93 2d 00 3d
       0.1457796 0.15613292 -0.24941933 0.031293463
0002d0 25 f1 7f bd 0f 5a 38 be 6f d3 14 3e 4c 41 f7 3d
       -0.062485833 -0.18003105 0.1453378 0.12073001
0002e0 3a 8d c3 bc 29 98 ef 3d 40 cc 43 be 02 41 94 bc
       -0.023871053 0.11698944 -0.19120884 -0.018097404
0002f0 d0 f5 b2 3d 83 de 29 3e fb ed 18 bc 31 f6 ad be
       0.08738291 0.16588788 -0.009334083 -0.33976892
000300 a1 bd 99 be e9 ac b3 be 7b 0c 26 3e 07 0b bf 3c
       -0.30027488 -0.35092857 0.16215698 0.023320688
000310 4a 62 7d bc da 4e 8f bd da 77 5f be 2c 40 b9 be
       -0.0154653285 -0.069974616 -0.21823063 -0.36181772
000320 af 74 1a bb 04 98 2f 3e c0 72 d8 3d a8 be 91 3e
       -0.0023568084 0.17147833 0.10568762 0.28465772
000330 87 d3 81 3e 2c 1a 58 bc 2d c1 20 3e f9 e6 19 3d
       0.25356695 -0.013189834 0.1569869 0.03757379
000340 70 2a 0c 3d 71 51 b8 3d 1c b5 61 3e 1a e5 5a 3e
       0.03422016 0.08999909 0.22041744 0.21376458
000350 79 7e 07 3e cc ea 05 bd 13 bf 58 be e6 f6 13 3d
       0.13231839 -0.032694623 -0.21166639 0.036124133
000360 c1 6e 28 3e 34 85 a4 bd 6f dd 0b be ef 98 f8 be
       0.164485 -0.08033219 -0.13658689 -0.4855418
000370 0f f8 64 bd c5 fc 03 3e 38 9c 04 3e df dc b3 3d
       -0.05590063 0.12889393 0.12950218 0.08782362
000380 f3 6b 9b bd 48 8d 23 3f ed 2c 10 3e ff 7a bf bc
       -0.07588949 0.63887453 0.14079638 -0.023374079
000390 04 02 be 3d 15 d1 f2 3e c8 51 5a 3e 7f 63 f4 be
       0.09277728 0.47425142 0.2132026 -0.4773216
0003a0 6a da 3f be ce b9 3e bd 19 3a 42 bd b5 6f f3 be
       -0.18735662 -0.046563916 -0.047418687 -0.47546163
0003b0 ac 4e 96 be 31 6a 0a 3e fc 87 c5 bd 67 f8 e8 be
       -0.29356897 0.13517071 -0.096450776 -0.45502016
0003c0 ea e7 5e be e8 7a 75 be 00 61 69 bc 76 5b 8b 3c
       -0.21768156 -0.23972666 -0.014244318 0.017011385
0003d0 ce 7b 2b 3a 8f f1 4c be ac 41 7d 3d df fb a9 3e
       0.00065415807 -0.20014022 0.061830208 0.33199975
0003e0 b6 ce 97 3e f5 a1 a5 3e d9 7d 04 bd c5 71 86 3d
       0.29649895 0.32350126 -0.03234658 0.065646686
0003f0 ae 51 f9 3d 9c d7 02 bd e9 df ed bc e8 e2 38 bd
       0.12173782 -0.031943902 -0.029037433 -0.04513827

fc1.bias f4 [120]
000000 e5 cd 07 be 9e 92 9f bb 72 1d 4c be 06 53 b6 3d
       -0.13262136 -0.004869773 -0.19933107 0.08902554
000010 5d fe 4e be a9 16 7d 3c ef 10 95 3e 7a 38 01 be
       -0.2021422 0.015447297 0.29114482 -0.126192
000020 5a ed 9b bc 1d ac 28 3e 09 72 53 3c 4a c4 18 be
       -0.019034076 0.16471906 0.012905606 -0.14918628
000030 cd 08 1a bd b3 8e 96 bd 61 46 4e 3e 68 97 4f 3d
       -0.03760605 -0.073514365 0.20144035 0.0506815
000040 8e e8 59 bd 3d d9 05 3e 22 40 57 bc fa 31 c5 3c
       -0.053200297 0.13071151 -0.013137849 0.024071682
000050 e1 c5 1b be 58 b6 42 be 8c 87 86 bd d3 f5 41 be
       -0.15212204 -0.19014871 -0.06568822 -0.18941431
000060 82 35 32 be ca cf ba 3c a7 c1 ad bd 53 63 af bd
       -0.17403224 0.02280416 -0.08484202 -0.085638665
000070 c9 a4 34 bd 9b 5a 38 be 5d a8 ce bd d8 32 1d bd
       -0.044102464 -0.18003313 -0.100907065 -0.038378567
000080 55 5a 6b bd 32 6f 20 bd 86 be 53 be 10 71 8a bd
       -0.057459194 -0.039168544 -0.20678148 -0.06759846
000090 ca 3b 3f be 00 9b 84 be 65 21 14 3d b1 8c ac bd
       -0.18675151 -0.25899506 0.03616466 -0.08425272
0000a0 d9 5e 3b 3c 28 36 8c bc f4 95 18 3e f9 cb 81 be
       0.011436188 -0.017115667 0.14900953 -0.2535093
0000b0 b7 62 5f bc e4 ea bd bd dc 9f f4 3d 8a 40 29 3e
       -0.013634375 -0.092733175 0.11944553 0.16528526
0000c0 a0 f0 81 bd 48 e7 b1 bd 55 32 07 be 0a 57 12 be
       -0.06344724 -0.086866915 -0.13202794 -0.14291015
0000d0 34 0a 6d 3d 0a 90 12 be 00 43 33 be e1 55 13 be
       0.05787106 -0.14312759 -0.17506027 -0.14388229
0000e0 1b 16 16 bd ba 26 08 be be 08 94 be 5a 17 10 be
       -0.036642175 -0.13296023 -0.2891292 -0.14071408
0000f0 2b 65 03 be 09 ae 3a be 10 cd 85 bd b5 f9 81 3e
       -0.12831561 -0.18230452 -0.06533253 0.25385824
000100 3e fb 06 3d 00 5a 47 bd fa 9b 63 bd 6a 98 b7 3d
       0.032954447 -0.048669815 -0.055568673 0.089646176
000110 3b 27 bf 3d 87 ef 47 be ef 3f a9 bd df 52 27 be
       0.093336545 -0.19524966 -0.082641475 -0.16340207
000120 2a 77 4d 3c 9c 96 b5 3c 4a ec 1e be 6e 7e b6 3d
       0.012540618 0.022166543 -0.15519825 0.08910833
000130 da fb e2 bc fc 65 74 be 03 da b7 bc 34 a1 ae 3c
       -0.027707983 -0.23867029 -0.022442823 0.021317102
000140 e9 90 fe 3b 89 38 12 be 5d c7 ab 3b 0c 24 84 bc
       0.0077687395 -0.14279379 0.005242272 -0.01613047
000150 68 58 33 bd 37 6b d3 3b b7 e4 78 bd 72 d7 07 3d
       -0.043785483 0.00645199 -0.060764994 0.03316445
000160 a3 ae c4 bd 87 3b 3f 3e 15 47 4f bd 9f 65 cf bd
       -0.09603622 0.18675052 -0.0506049 -0.101268046
000170 c6 ab 9e bd a3 37 d7 bd 92 2f 9d 3c 3e 3c 35 be
       -0.07747607 -0.10508659 0.019187722 -0.17698762
000180 50 dc 80 bd ee 14 d4 3a 08 2e 26 be b2 cb 82 bd
       -0.06292021 0.0016180554 -0.16228497 -0.06386508
000190 ad e9 37 be eb 8f 2e be 08 52 32 3c 2d b6 16 3d
       -0.17960234 -0.17047088 0.010883816 0.03679483
0001a0 93 6e 2b 3e 43 80 8d bb 29 fe 1f bd d2 83 80 be
       0.167414 -0.0043182685 -0.039060745 -0.2510057
0001b0 c8 d1 1a be 8c f8 e2 bd df 66 92 3e 03 76 3b bd
       -0.15119088 -0.11082563 0.2859411 -0.04576684
0001c0 6e 47 82 be d7 bc 8d be f3 6b 91 3d 05 9f 0d bd
       -0.25445122 -0.27683136 0.07100668 -0.03457548
0001d0 71 bb dd bc c2 1d e3 bd 92 60 9a 3c 38 9f 0d be
       -0.027066918 -0.1108966 0.018844876 -0.13830268

fc2.weight f4 [84, 120]
000000 2f 21 04 be f4 89 4f bd 9b 1b 21 3e 76 bc af 3e
       -0.12903284 -0.05066867 0.15733187 0.34323472
000010 02 1e 9b bd fe 6c d8 3d 52 de 37 bb 75 1f c5 bc
       -0.07574083 0.105676636 -0.0028056097 -0.024062851
000020 db ba 43 bd fd 2d 17 3b 23 78 c4 3d fb de e9 bd
       -0.04778562 0.0023068183 0.09593227 -0.11419483
000030 ad 92 2d 3d bc 1d 07 3e 90 9c c5 be 21 f2 c3 3e
       0.04237621 0.13194937 -0.3859601 0.38270667
000040 2f fc bf 3d 35 dc 84 be 77 2b e8 be 1d 1c 97 bd
       0.09374272 -0.25949255 -0.4534566 -0.07378409
000050 3c 0e f3 3d 35 ba 10 3e 33 81 34 bc 5c 27 e8 3d
       0.11867949 0.14133532 -0.011017132 0.11335632
000060 bb 02 a7 3e eb b4 18 bd 60 cb 16 be ba 52 31 3d
       0.3261927 -0.03728191 -0.14726019 0.043291785
000070 bd e0 3c be 12 f7 cf 3c ac d9 6e 3d a4 20 5d bd
       -0.18445106 0.025386367 0.058313057 -0.053986207
000080 cc c9 56 3e 5c 32 79 ba 17 05 6b 3d 78 eb 5a 3e
       0.20975417 -0.00095061003 0.0573779 0.21378887
000090 23 dc f4 be 39 fd 29 3d ed fa 69 be 4f 05 46 3d
       -0.478242 0.041501258 -0.22849627 0.048344906
0000a0 d7 a3 aa 3d 3b c0 53 bc 40 4e 6a be eb d6 0d 3e
       0.08332031 -0.012924249 -0.22881413 0.13851516
0000b0 9a 7c 06 3c fd 63 4a 3e 1a a4 37 bd c9 77 8e bd
       0.008208418 0.19764705 -0.044834234 -0.06956441
0000c0 fb 58 92 3c 0b 51 1c be 92 ef b2 3e a9 29 15 be
       0.017864695 -0.1526529 0.34948403 -0.14566673
0000d0 a4 f2 c0 3d 29 bc 19 be 90 13 52 3e be 15 fc bd
       0.0942128 -0.15013184 0.20515275 -0.123088345
0000e0 57 fa c2 be 24 a7 01 be 13 b0 e4 3e 0f c4 48 3e
       -0.3808162 -0.12661415 0.44665584 0.1960604
0000f0 61 38 42 3e 45 65 0c bd af 65 82 bd 29 a4 65 3e
       0.1896682 -0.034276266 -0.06367051 0.22425903
000100 c6 01 61 be 70 ac 8f 3e d6 50 0e bd 5f 3d 61 3e
       -0.21973333 0.28061247 -0.03474506 0.21996067
000110 9f fc 2d be 0b 9c f5 bc b4 87 81 3d 1c 25 99 3e
       -0.16990899 -0.029981634 0.063247114 0.29911125
000120 b6 dc 29 bd 39 ff 77 be e0 ca 80 bd 73 79 d2 bd
       -0.041470252 -0.24218453 -0.06288695 -0.10277071
000130 8c 33 5c 3c 38 f7 08 3e 68 c2 66 bd bd 13 83 be
       0.013440024 0.13375556 -0.056337744 -0.25600997
000140 ed 35 a9 bd 2e 82 39 3e 70 4a 1c 3e 52 30 b1 3d
       -0.08262239 0.18116066 0.1526277 0.086517945
000150 ff d3 b4 3d 1b 18 5c 3c 10 75 89 3d ba be 9a ba
       0.088294975 0.013433482 0.06711781 -0.0011806109
000160 0d a4 29 3d a4 ba ea 3d 1b 31 8f bd a0 4f 64 be
       0.041416217 0.1146138 -0.06991788 -0.22296
000170 ed 3e 3a 3e 8c 75 7c bd 3f 79 27 3f f7 3f 44 3e
       0.18188067 -0.06163554 0.6541938 0.19165026
000180 d0 34 9e 3d f2 e0 e2 3a 3e 37 5b be a5 95 6d 3e
       0.07724917 0.001730947 -0.21407792 0.23201616
000190 d9 03 87 be 92 9e 48 3e 28 81 28 bd 98 e5 07 bf
       -0.26370123 0.1959174 -0.041138798 -0.5308471
0001a0 74 1c 5a 3e 2f 9c 10 3e 59 26 08 3d bd 79 15 be
       0.21299917 0.1412208 0.033239696 -0.1459722
0001b0 ca 59 b1 bd a4 b8 48 3d 03 9c 71 3d 17 10 b6 b8
       -0.08659704 0.049004212 0.058986675 -8.681433e-05
0001c0 7f 02 01 3e 9d 09 78 be ec b8 4e 3d 00 52 3d 3c
       0.12598608 -0.24222417 0.050469324 0.011555195
0001d0 4f 06 98 3e 92 f5 ff 3d 98 5d db bd 60 ac 18 be
       0.29692313 0.12498011 -0.10711211 -0.14909506
0001e0 56 b1 7d 3d 3e 62 d7 3d b7 66 46 be ad 20 af 3d
       0.0619367 0.10516785 -0.1937512 0.08551154
0001f0 c6 26 c5 3d 0c 98 32 bc 3a 3b e7 bd 89 21 50 3e
       0.09626536 -0.010900509 -0.112905934 0.20325293
000200 d3 f5 c5 3c 30 e7 fc 3c bf 00 18 3d a9 ab 44 be
       0.02416507 0.030871958 0.037110087 -0.19206108
000210 e0 17 38 bb 5c 15 d8 bc e7 dd 5d 3e 52 76 e0 bd
       -0.0028090402 -0.026377372 0.2166668 -0.10960068
000220 9b 8d 8f 3c c9 08 0c ba 6d dc 12 3d d7 7e 68 3d
       0.017523577 -0.0005341885 0.035854746 0.05676159
000230 59 e7 91 3e bd 13 82 3e 44 21 c2 3d 80 c8 39 be
       0.28496817 0.25405684 0.09479001 -0.18142891
000240 47 b4 d1 3e 8c ce a7 bd 3b 65 8e 3d df b4 3b 3c
       0.40957853 -0.081936926 0.06952902 0.011456697
000250 16 17 2d 3d ce 81 97 be dd 19 dc bd b1 ce c1 3c
       0.042258345 -0.2959122 -0.107471205 0.023658128
000260 2e 65 43 bd 45 a5 2c bd 11 51 8f bc 5c 8b 9e bd
       -0.047703914 -0.0421498 -0.01749471 -0.077414244
000270 f9 8b 17 bf 15 10 7c be 71 89 76 be 1c 5f 46 be
       -0.59197956 -0.2461551 -0.24075867 -0.19372219
000280 d4 4b 36 bd c1 c4 83 bd 79 83 c7 be 56 47 d7 3e
       -0.04450591 -0.06434012 -0.38967493 0.42046613
000290 cd 80 9f bd 49 c7 c3 bd 93 b0 81 3e 02 76 eb bc
       -0.07788239 -0.09559495 0.25330028 -0.028742794
0002a0 b5 66 3a 3d d4 2b 5b be db 15 d9 3c dd ac ca bd
       0.045508105 -0.21403438 0.02649968 -0.09896252
0002b0 6b ad 49 be ec 2b 89 be 3f 50 5a 3e a3 e8 34 bc
       -0.1969506 -0.26791322 0.21319674 -0.011041793
0002c0 24 6c 77 bd 2a dd 30 bd ef 6a 19 bd c7 95 bd 3d
       -0.060405865 -0.04317967 -0.037455495 0.092570834
0002d0 02 54 da 3c 4b 61 cc 3a b8 91 ff 3d 04 63 1b bd
       0.026651386 0.001559296 0.124789655 -0.037936226
0002e0 07 d8 22 be d4 16 1e bc 07 5c 86 3d 05 7c 80 3c
       -0.1590272 -0.009648997 0.065605216 0.015684137
0002f0 a6 e0 07 3e a6 cf bc 3e fa 4c d9 3d 5d cc ea bd
       0.1326929 0.36877173 0.10610385 -0.114647605
000300 39 4c 75 ba ee 0a 39 bd 26 ed 4f bd 42 4f 8a 3d
       -0.00093573664 -0.04517644 -0.05076327 0.067533985
000310 9a ea bd 3d 3c 1d 9a 3e 1b af a1 3c d3 11 cb 3c
       0.09273262 0.3010043 0.019736817 0.024788773
000320 ee 34 b1 3c 43 aa 26 bd d0 95 92 bd f9 a5 62 3b
       0.021631684 -0.040689718 -0.07157481 0.003458379
000330 96 05 97 3c 1d 08 9d bd cb a7 62 3d 70 10 91 be
       0.01843528 -0.07667563 0.0553358 -0.28332853
000340 49 57 4e bd 03 d8 2f be 0b 37 19 bc d1 d6 67 be
       -0.05037621 -0.17172246 -0.009351502 -0.2264054
000350 88 41 10 bc 5f 4f 85 bd f1 ae 99 3d 59 ae c7 3b
       -0.008804686 -0.065092795 0.075040706 0.006093782
000360 00 c6 20 3d 4b 62 77 be 00 8b d2 be f0 1a 2b bd
       0.039251328 -0.2415859 -0.41121674 -0.041773736
000370 cd 7f 82 be 2e 83 89 3e 43 47 4d bd e8 ed d1 be
       -0.2548813 0.26857895 -0.05011679 -0.4100182
000380 cf c5 91 be b7 64 18 be 73 4a 20 bd a4 cc 63 bd
       -0.28471228 -0.1488217 -0.0391335 -0.055615082
000390 f4 d7 fc 3e 71 32 3d be ba eb 59 be 3f a7 93 3d
       0.4938351 -0.18476273 -0.21281329 0.07209634
0003a0 ad 8e e4 bc a2 26 70 be f8 c5 5f be 10 73 d6 3d
       -0.027900064 -0.23452237 -0.21852863 0.10471165
0003b0 7f c5 a8 3e 1d 48 11 3e 78 f1 c4 3e c7 8d 7b 3e
       0.32963178 0.14187665 0.38465476 0.24565803
0003c0 91 86 c1 bd d1 53 2f 3e 7c 79 45 be a5 de c6 3e
       -0.09449495 0.17121817 -0.19284624 0.3884174
0003d0 31 51 a7 bd e9 b0 86 3d 8f 3f 54 be 36 40 d5 be
       -0.08169783 0.06576712 -0.2072737 -0.41650552
0003e0 f8 ad f5 bc 40 a3 43 bd e3 bb b3 bd 90 1a d6 be
       -0.029990181 -0.04776311 -0.08776071 -0.4181714
0003f0 d2 2c 6d 3b 89 09 43 3b 4c cc 69 3e 67 bd a5 3d
       0.0036190045 0.0029760322 0.2283184 0.08092766

fc2.bias f4 [84]
000000 3a fe 2e be 3f 67 5c bd 87 f3 20 be 21 41 80 3d
       -0.17089167 -0.0538094 -0.15717898 0.06262422
000010 b5 3c ff 3b 25 ff f1 3c 6f 60 10 be 4c af cb 3d
       0.0077892193 0.029540608 -0.14099286 0.099455446
000020 61 ae 55 3e ff f9 16 bd a7 1f e5 bd e8 0d 27 3e
       0.20867302 -0.03685951 -0.11187678 0.16313899
000030 9e 90 b3 3d 14 9a 61 3e 49 a7 82 bd 0f 7e 82 bd
       0.08767818 0.22031432 -0.06379563 -0.063717
000040 3c 42 2e be 07 f8 1c 3e ac fa b4 be 5f 1e f8 bd
       -0.17017454 0.1532899 -0.35347497 -0.12115168
000050 b2 64 49 be 39 da 95 be 3f e2 90 be 2c c9 a0 bd
       -0.19667318 -0.29268053 -0.28297612 -0.078508705
000060 a2 d8 57 be 49 1b 39 be 90 61 c1 bc 3b 10 d0 3e
       -0.21078733 -0.18076815 -0.023606092 0.40637383
000070 91 35 c9 bd 88 ad 4d be 5e ac a6 3d cf 08 f1 bc
       -0.0982467 -0.20085728 0.08138345 -0.029423146
000080 d4 b5 00 3e 21 d1 16 3b a4 94 9d bb 1c 53 26 3e
       0.12569362 0.0023012834 -0.004808979 0.16242641
000090 2f f3 74 be 9a c6 84 3b d9 ec fa bd b9 a5 f8 bd
       -0.23920892 0.0040519955 -0.12252206 -0.12140984
0000a0 6f 88 dc 3d c2 fa c9 bd 0c f4 85 3c 9a e9 c2 bc
       0.1076821 -0.098622814 0.016351722 -0.02379303
0000b0 22 a6 13 3e 66 e2 01 3e d5 f6 a5 bd e9 41 e9 bd
       0.14418843 0.1268402 -0.0810372 -0.113895245
0000c0 4f 3d 37 3d 9c d9 44 be 6b bd 8b be 5e 1f ed bc
       0.044736203 -0.19223636 -0.27292952 -0.028945621
0000d0 4d 56 8e 3d f7 d9 f1 bd e5 24 95 bd 2a db c0 bd
       0.06950054 -0.118091516 -0.07282428 -0.09416802
0000e0 77 1a e0 bd 77 94 1e be 82 fb 73 be 49 8d a4 bd
       -0.10942548 -0.15486322 -0.23826411 -0.080347605
0000f0 2e 9c 34 be 45 5b 2d be 6d 70 8c be 0f 7a b7 bd
       -0.17637703 -0.16929348 -0.27429524 -0.08958828
000100 9d a2 84 be c0 b7 b9 bd fc 97 ad 3d 8b f5 92 be
       -0.25905314 -0.09068251 0.08476254 -0.2870296
000110 d7 f0 30 be 12 37 68 be f0 c3 9e be a9 48 8f 3e
       -0.17279373 -0.22677258 -0.31008863 0.27985123
000120 b4 33 00 3c 56 5d c5 3b d3 0f 0e 3e 5a cf fc bc
       0.007824827 0.0060230894 0.13873224 -0.030860592
000130 f4 c0 81 3c 5d 60 32 be 44 bc 97 3d a7 90 93 be
       0.015839078 -0.17419572 0.07408956 -0.28821298
000140 fb 8b a9 be 07 bf 44 be 03 c9 06 3e 50 32 ac bc
       -0.3311461 -0.19213496 0.13162617 -0.021020085

fc3.weight f4 [10, 84]
000000 95 df 77 be 82 92 3f 3e 01 93 40 be bf fa f7 be
       -0.24206384 0.18708232 -0.18806078 -0.48433492
000010 5b 48 8f 3d 51 50 0d bf 48 d8 49 be 97 a4 f4 be
       0.069962226 -0.5520068 -0.19711411 -0.47781822
000020 f3 8d 4b bf c2 cc 85 3d 01 e9 0f bf 7c d6 86 bd
       -0.7951347 0.06533195 -0.5621491 -0.065838784
000030 d0 cd 0b bf b9 08 f6 3d cc c4 b3 bd 37 dc 36 be
       -0.5461092 0.120133825 -0.087777704 -0.17857443
000040 ee 58 48 bf b3 76 99 be b1 9b 90 bd 97 d4 4e bf
       -0.78260696 -0.29973373 -0.07060946 -0.80793136
000050 9e 62 95 be 4b 32 1a be 63 78 db 3c bc f1 2a 3e
       -0.291768 -0.15058248 0.026790803 0.16693777
000060 dd b6 d0 be 78 1d b2 bd 35 36 06 bf af 9a b0 bd
       -0.40764514 -0.08697027 -0.52426463 -0.086232536
000070 29 0c da bc 1c 80 c9 3d 7b 4e 34 bd ed 67 50 3e
       -0.026617127 0.09838888 -0.044020157 0.20352145
000080 e5 c2 89 3e 20 2e ed be ef 56 e5 be 91 5e ba 3e
       0.26906505 -0.46324253 -0.44792888 0.36400273
000090 47 09 0e bd 97 12 24 3e 59 b2 e8 be 9d 6a 1a 3b
       -0.034676816 0.16022716 -0.45448568 0.0023562082
0000a0 d2 1b b0 be a9 ce a0 3d 9c a6 89 3e 29 05 2c bf
       -0.34396225 0.07851917 0.26884925 -0.67195374
0000b0 94 a6 a0 be a2 00 76 be c3 dd dc be 1a 3d 15 be
       -0.3137709 -0.24023679 -0.4313794 -0.1457409
0000c0 cc 5c 0b bf 4c f3 32 be eb 3a 91 bd bb 2d 11 3d
       -0.5443847 -0.17475623 -0.07091316 0.035444003
0000d0 6a 6e 9f 3d fb 12 c7 bd 49 62 80 be ad 41 df bd
       0.07784732 -0.09720417 -0.25074986 -0.109011985
0000e0 58 0d 31 bb cd 41 a3 be 36 c2 65 bd d5 7a af be
       -0.002701601 -0.3188614 -0.056093417 -0.342734
0000f0 c8 5e 2c bd 32 09 15 3e 39 e2 d7 3c e6 c1 dc be
       -0.042082578 0.14554289 0.026352989 -0.43116683
000100 fd 3d aa bc 54 d7 84 3e cb 29 a1 be f3 3a 88 bb
       -0.020781511 0.25945532 -0.31477198 -0.004157418
000110 a0 45 3f bf 5c 1d f0 be 9c 4d bc 3d 6a 08 04 bf
       -0.74715614 -0.468974 0.0919449 -0.5157534
000120 d9 d6 12 bd 8e e3 e4 3d 34 a1 a3 be cd 67 40 be
       -0.035849426 0.11176215 -0.31958926 -0.18789597
000130 ad d2 58 3b b7 30 cb bc 1a 73 1f 3e fa 49 4d 3d
       0.0033084557 -0.024803502 0.15571252 0.050119378
000140 30 9e 1f 3d 6d 91 9a 3c c8 33 0b 3e 5a c9 b2 be
       0.03896922 0.018868173 0.13593972 -0.34919244
000150 87 8c 1d 3e c7 33 1c be 7c 6d a0 3d bd e8 04 3e
       0.15385638 -0.15254126 0.078333825 0.12979408
000160 b2 77 34 bf 76 25 0c be bd fc a2 be 1d ed c7 be
       -0.7049514 -0.13686165 -0.3183345 -0.3904809
000170 64 08 44 3d 1b d8 ea be dd d3 8e 3e 82 d2 ec be
       0.047859564 -0.45868 0.27896014 -0.46254355
000180 99 b1 7a 3d 61 88 91 3c 21 d2 16 3d f2 04 10 bf
       0.061204527 0.017765226 0.03682149 -0.56257546
000190 df ff cf 3e 17 47 40 3e f5 59 c6 be c5 20 f4 3d
       0.40624902 0.18777119 -0.38740507 0.11920313
0001a0 ce 7f 38 be 28 00 0d 3e ea 44 8f be 2d 8c 66 bf
       -0.18017504 0.13769591 -0.27982265 -0.9005764
0001b0 03 d3 33 bf 6d 54 f3 be ff 4c c8 3d 3f 79 bf 3d
       -0.70243853 -0.4752535 0.09780311 0.09349298
0001c0 b6 70 bd be 1c ee 24 bf 95 79 45 bf a8 f8 d3 be
       -0.37000054 -0.64425826 -0.77138644 -0.41400647
0001d0 98 05 08 3c 61 e0 84 be c4 77 e8 3d 5f 6e a9 3e
       0.008302115 -0.25952438 0.113509685 0.3309202
0001e0 d2 cb 68 3d 4f 06 ef be 25 65 26 bf 98 1e 41 bd
       0.056835003 -0.466845 -0.64998084 -0.047148317
0001f0 ba e2 31 bf 6a 36 26 be c8 37 e7 3c bf 93 60 3e
       -0.6948658 -0.16231695 0.02822484 0.2193136
000200 1f e5 97 be ce 96 b1 be b8 f5 29 3d 41 95 82 3d
       -0.29666993 -0.34685367 0.0414941 0.06376124
000210 ca 0b 1b 3e dd 34 be 3d e7 44 70 bf 8b e0 d2 3d
       0.15141216 0.092874266 -0.93855137 0.102967344
000220 cc 25 14 bf 53 43 9a bd dd a2 a5 3d ce f5 71 3d
       -0.57870173 -0.07532372 0.08087704 0.05907231
000230 04 19 c3 bd 08 34 e3 be c6 b0 e9 be ab 2d b2 3d
       -0.09526256 -0.44375634 -0.4564268 0.08700117
000240 3b d2 c1 bd f2 d0 86 bd 6c 9e 1a bf 8e 58 5a 3e
       -0.094639264 -0.06582822 -0.6039798 0.21322843
000250 2a f1 66 3d 80 64 d0 3e c0 6f 97 3d 04 b2 94 3c
       0.056382336 0.40701675 0.073943615 0.01815129
000260 96 af 10 3d c3 f7 31 be 71 0c e5 be 28 f1 86 3d
       0.0353237 -0.1737967 -0.44736055 0.06588966
000270 92 83 18 3e 2b a2 ab 3d 9b 6a c6 be 93 e3 db 3c
       0.1489394 0.083805405 -0.3875321 0.026841914
000280 97 1b 0f bd 95 fd 3b bf a0 f1 bb be 7e f2 56 bf
       -0.03493842 -0.7343381 -0.36707783 -0.83963764
000290 86 40 fa be 7e c5 b7 be 63 62 c8 be 1a de e7 be
       -0.48877352 -0.35892862 -0.39137563 -0.45286638
0002a0 1f 7f 1a 3d 5a d4 34 bd db d5 e4 be c4 c0 00 bf
       0.03771889 -0.044147827 -0.4469441 -0.50294137
0002b0 bf 75 01 3e 03 2b f1 3d c2 de 23 3d ec 46 04 bf
       0.12642573 0.11775782 0.04000736 -0.5167072
0002c0 08 83 d0 be 0a a1 9b be da a5 d5 bd b2 33 ce be
       -0.4072497 -0.303963 -0.10432024 -0.40273815
0002d0 45 23 04 3e f7 e8 3a bf 74 cb 34 be f2 9d fc be
       0.1290408 -0.73011726 -0.17655736 -0.49339253
0002e0 86 8a eb be 2c fb b6 be f1 07 f0 be 3d 73 3b 3e
       -0.46004122 -0.35738504 -0.4688106 0.18305679
0002f0 9a 28 0c be 2d 5a fd 3d 3a a6 7d be fc 1b b0 be
       -0.13687363 0.12370715 -0.24770442 -0.3439635
000300 67 54 27 bf 42 bc 4f 3e 31 e7 05 3e f2 a5 bc be
       -0.6536316 0.20286658 0.13076474 -0.36845356
000310 cc d5 2a 3e ab 37 97 bd b6 00 b7 3d c6 08 e1 3d
       0.1668312 -0.07383665 0.089356825 0.109880015
000320 b0 34 ce bc 27 e5 1e bf 04 87 14 3d c6 5c 27 bf
       -0.025171608 -0.6206841 0.036261573 -0.65375936
000330 bc dc d5 be b9 a1 4e 3e 67 39 ac bc df 16 4d 3d
       -0.4176997 0.2017888 -0.021023465 0.05007064
000340 68 33 96 be e8 a7 55 3d 81 fb 07 be f6 df b7 be
       -0.29336095 0.05216208 -0.13279535 -0.35913056
000350 75 a7 35 bd c3 0d e5 bd c2 a2 78 3d 0d 01 a0 3d
       -0.044349153 -0.111842655 0.060702093 0.078127004
000360 56 f5 81 be ba ed dc 3c 50 09 04 bf 1a 75 1c 3e
       -0.2538249 0.026968826 -0.5157671 0.15279046
000370 c9 c5 34 be d8 c1 3a be 06 b4 83 bd e0 04 b7 3d
       -0.17653574 -0.18238008 -0.06430821 0.08936477
000380 20 4f 3e 3a 8d 64 01 3c 9c 09 46 3e 6a 4d e4 3e
       0.00072597153 0.007897508 0.19339603 0.44590312
000390 ee de 1a bf 5c a2 27 be bc 93 8a be ea f8 03 3e
       -0.60496414 -0.16370529 -0.27065837 0.12887922
0003a0 16 f1 9f be 44 10 e9 be 85 8b f7 be 8e f6 5f bf
       -0.3123862 -0.45520222 -0.48348632 -0.8748559
0003b0 78 84 05 be 2f 35 34 3e f6 1a 72 3a 8d b9 29 be
       -0.13038814 0.17598413 0.0009235585 -0.16574688
0003c0 97 db c6 be d2 ab e5 bd ac 8e ea bd 13 a3 d2 be
       -0.3883941 -0.11214413 -0.11452994 -0.4114004
0003d0 17 81 2e 3d fd 5f 85 3d 2a c1 89 be 8f 5a 01 bf
       0.04260358 0.06512449 -0.26905185 -0.50528806
0003e0 00 81 3c be a4 28 6f bd 8e c3 d0 bc a9 71 f9 3d
       -0.18408585 -0.058388367 -0.025483873 0.12179882
0003f0 bd d6 01 be ea 8a 3c bd 23 9e de be a5 ad c2 be
       -0.12679572 -0.046030916 -0.43480024 -0.38023105

fc3.bias f4 [10]
000000 8e aa 15 bb ee 02 b6 bc a2 6b a2 3d 21 2e 8e bd
       -0.0022837254 -0.022218194 0.079306856 -0.06942392
000010 60 b7 8b 3d e1 d3 72 be f7 d8 42 bd 8c 17 25 be
       0.068220854 -0.23713638 -0.047570195 -0.16122264
000020 79 62 8b 3e ac 5a c9 bd
       0.27223566 -0.098317474
